Model: InceptionNet(
  (stem): Stem(
    (stem): Sequential(
      (0): Conv2d(3, 8, kernel_size=(7, 7), stride=(2, 2), padding=(3, 3), bias=False)
      (1): Identity()
      (2): ReLU(inplace=True)
      (3): MaxPool2d(kernel_size=3, stride=2, padding=1, dilation=1, ceil_mode=False)
    )
  )
  (stages): Sequential(
    (0): InceptionStage(
      (stage): Sequential(
        (0): InceptionBlock(
          (b0): Sequential(
            (0): Conv2d(8, 8, kernel_size=(1, 1), stride=(1, 1), bias=False)
            (1): Identity()
            (2): ReLU(inplace=True)
          )
          (b1): Sequential(
            (0): Conv2d(8, 4, kernel_size=(1, 1), stride=(1, 1), bias=False)
            (1): Identity()
            (2): ReLU(inplace=True)
            (3): FactorisedConv(
              (block): Sequential(
                (0): Conv2d(4, 8, kernel_size=(1, 3), stride=(1, 1), padding=(0, 1), bias=False)
                (1): ReLU(inplace=True)
                (2): Conv2d(8, 8, kernel_size=(3, 1), stride=(1, 1), padding=(1, 0), bias=False)
                (3): ReLU(inplace=True)
              )
            )
          )
          (b2): Sequential(
            (0): Conv2d(8, 4, kernel_size=(1, 1), stride=(1, 1), bias=False)
            (1): Identity()
            (2): ReLU(inplace=True)
            (3): FactorisedConv(
              (block): Sequential(
                (0): Conv2d(4, 8, kernel_size=(1, 3), stride=(1, 1), padding=(0, 1), bias=False)
                (1): ReLU(inplace=True)
                (2): Conv2d(8, 8, kernel_size=(3, 1), stride=(1, 1), padding=(1, 0), bias=False)
                (3): ReLU(inplace=True)
              )
            )
            (4): FactorisedConv(
              (block): Sequential(
                (0): Conv2d(8, 8, kernel_size=(1, 3), stride=(1, 1), padding=(0, 1), bias=False)
                (1): ReLU(inplace=True)
                (2): Conv2d(8, 8, kernel_size=(3, 1), stride=(1, 1), padding=(1, 0), bias=False)
                (3): ReLU(inplace=True)
              )
            )
          )
          (b3): Sequential(
            (0): MaxPool2d(kernel_size=3, stride=1, padding=1, dilation=1, ceil_mode=False)
            (1): Conv2d(8, 4, kernel_size=(1, 1), stride=(1, 1), bias=False)
            (2): Identity()
            (3): ReLU(inplace=True)
          )
          (dropout): Identity()
        )
      )
    )
    (1): InceptionStage(
      (stage): Sequential(
        (0): InceptionBlock(
          (b0): Sequential(
            (0): Conv2d(28, 8, kernel_size=(1, 1), stride=(1, 1), bias=False)
            (1): Identity()
            (2): ReLU(inplace=True)
          )
          (b1): Sequential(
            (0): Conv2d(28, 4, kernel_size=(1, 1), stride=(1, 1), bias=False)
            (1): Identity()
            (2): ReLU(inplace=True)
            (3): FactorisedConv(
              (block): Sequential(
                (0): Conv2d(4, 8, kernel_size=(1, 3), stride=(1, 1), padding=(0, 1), bias=False)
                (1): ReLU(inplace=True)
                (2): Conv2d(8, 8, kernel_size=(3, 1), stride=(1, 1), padding=(1, 0), bias=False)
                (3): ReLU(inplace=True)
              )
            )
          )
          (b2): Sequential(
            (0): Conv2d(28, 4, kernel_size=(1, 1), stride=(1, 1), bias=False)
            (1): Identity()
            (2): ReLU(inplace=True)
            (3): FactorisedConv(
              (block): Sequential(
                (0): Conv2d(4, 8, kernel_size=(1, 3), stride=(1, 1), padding=(0, 1), bias=False)
                (1): ReLU(inplace=True)
                (2): Conv2d(8, 8, kernel_size=(3, 1), stride=(1, 1), padding=(1, 0), bias=False)
                (3): ReLU(inplace=True)
              )
            )
            (4): FactorisedConv(
              (block): Sequential(
                (0): Conv2d(8, 8, kernel_size=(1, 3), stride=(1, 1), padding=(0, 1), bias=False)
                (1): ReLU(inplace=True)
                (2): Conv2d(8, 8, kernel_size=(3, 1), stride=(1, 1), padding=(1, 0), bias=False)
                (3): ReLU(inplace=True)
              )
            )
          )
          (b3): Sequential(
            (0): MaxPool2d(kernel_size=3, stride=1, padding=1, dilation=1, ceil_mode=False)
            (1): Conv2d(28, 4, kernel_size=(1, 1), stride=(1, 1), bias=False)
            (2): Identity()
            (3): ReLU(inplace=True)
          )
          (dropout): Identity()
        )
        (1): MaxPool2d(kernel_size=3, stride=2, padding=1, dilation=1, ceil_mode=False)
      )
    )
    (2): InceptionStage(
      (stage): Sequential(
        (0): InceptionBlock(
          (b0): Sequential(
            (0): Conv2d(28, 8, kernel_size=(1, 1), stride=(1, 1), bias=False)
            (1): Identity()
            (2): ReLU(inplace=True)
          )
          (b1): Sequential(
            (0): Conv2d(28, 4, kernel_size=(1, 1), stride=(1, 1), bias=False)
            (1): Identity()
            (2): ReLU(inplace=True)
            (3): FactorisedConv(
              (block): Sequential(
                (0): Conv2d(4, 8, kernel_size=(1, 3), stride=(1, 1), padding=(0, 1), bias=False)
                (1): ReLU(inplace=True)
                (2): Conv2d(8, 8, kernel_size=(3, 1), stride=(1, 1), padding=(1, 0), bias=False)
                (3): ReLU(inplace=True)
              )
            )
          )
          (b2): Sequential(
            (0): Conv2d(28, 4, kernel_size=(1, 1), stride=(1, 1), bias=False)
            (1): Identity()
            (2): ReLU(inplace=True)
            (3): FactorisedConv(
              (block): Sequential(
                (0): Conv2d(4, 8, kernel_size=(1, 3), stride=(1, 1), padding=(0, 1), bias=False)
                (1): ReLU(inplace=True)
                (2): Conv2d(8, 8, kernel_size=(3, 1), stride=(1, 1), padding=(1, 0), bias=False)
                (3): ReLU(inplace=True)
              )
            )
            (4): FactorisedConv(
              (block): Sequential(
                (0): Conv2d(8, 8, kernel_size=(1, 3), stride=(1, 1), padding=(0, 1), bias=False)
                (1): ReLU(inplace=True)
                (2): Conv2d(8, 8, kernel_size=(3, 1), stride=(1, 1), padding=(1, 0), bias=False)
                (3): ReLU(inplace=True)
              )
            )
          )
          (b3): Sequential(
            (0): MaxPool2d(kernel_size=3, stride=1, padding=1, dilation=1, ceil_mode=False)
            (1): Conv2d(28, 4, kernel_size=(1, 1), stride=(1, 1), bias=False)
            (2): Identity()
            (3): ReLU(inplace=True)
          )
          (dropout): Identity()
        )
        (1): MaxPool2d(kernel_size=3, stride=2, padding=1, dilation=1, ceil_mode=False)
      )
    )
  )
  (pool): AdaptiveAvgPool2d(output_size=1)
  (classifier): Classifier(
    (net): Sequential(
      (0): Linear(in_features=28, out_features=1024, bias=True)
      (1): ReLU(inplace=True)
      (2): Dropout(p=0.7, inplace=False)
      (3): Linear(in_features=1024, out_features=29, bias=True)
    )
  )
)
Overwriting model state from train_InceptionNet_mame.pth
Patience for early stopping: 50 epochs
Training for 50 epochs
Epoch 001/50: train_loss=3.3702 acc=0.037 | val_loss=3.3636 acc=0.054
Epoch 002/50: train_loss=3.3673 acc=0.034 | val_loss=3.3623 acc=0.040
Epoch 003/50: train_loss=3.3641 acc=0.037 | val_loss=3.3619 acc=0.034
Epoch 004/50: train_loss=3.3632 acc=0.038 | val_loss=3.3619 acc=0.034
…
