Model: InceptionNet(
  (stem): Stem(
    (stem): Sequential(
      (0): Conv2d(3, 64, kernel_size=(7, 7), stride=(2, 2), padding=(3, 3), bias=False)
      (1): BatchNorm2d(64, eps=1e-05, momentum=0.1, affine=True, track_running_stats=True)
      (2): ReLU(inplace=True)
      (3): MaxPool2d(kernel_size=2, stride=2, padding=1, dilation=1, ceil_mode=False)
    )
  )
  (stages): Sequential(
    (0): InceptionStage(
      (stage): Sequential(
        (0): InceptionBlock(
          (b0): Sequential(
            (0): Conv2d(64, 64, kernel_size=(1, 1), stride=(1, 1), bias=False)
            (1): BatchNorm2d(64, eps=1e-05, momentum=0.1, affine=True, track_running_stats=True)
            (2): ReLU(inplace=True)
          )
          (b1): Sequential(
            (0): Conv2d(64, 48, kernel_size=(1, 1), stride=(1, 1), bias=False)
            (1): BatchNorm2d(48, eps=1e-05, momentum=0.1, affine=True, track_running_stats=True)
            (2): ReLU(inplace=True)
            (3): FactorisedConv(
              (block): Sequential(
                (0): Conv2d(48, 64, kernel_size=(1, 3), stride=(1, 1), padding=(0, 1), bias=False)
                (1): Sequential(
                  (0): BatchNorm2d(64, eps=1e-05, momentum=0.1, affine=True, track_running_stats=True)
                  (1): ReLU(inplace=True)
                )
                (2): Conv2d(64, 64, kernel_size=(3, 1), stride=(1, 1), padding=(1, 0), bias=False)
                (3): Sequential(
                  (0): BatchNorm2d(64, eps=1e-05, momentum=0.1, affine=True, track_running_stats=True)
                  (1): ReLU(inplace=True)
                )
              )
            )
          )
          (b2): Sequential(
            (0): Conv2d(64, 64, kernel_size=(1, 1), stride=(1, 1), bias=False)
            (1): BatchNorm2d(64, eps=1e-05, momentum=0.1, affine=True, track_running_stats=True)
            (2): ReLU(inplace=True)
            (3): FactorisedConv(
              (block): Sequential(
                (0): Conv2d(64, 96, kernel_size=(1, 3), stride=(1, 1), padding=(0, 1), bias=False)
                (1): Sequential(
                  (0): BatchNorm2d(96, eps=1e-05, momentum=0.1, affine=True, track_running_stats=True)
                  (1): ReLU(inplace=True)
                )
                (2): Conv2d(96, 96, kernel_size=(3, 1), stride=(1, 1), padding=(1, 0), bias=False)
                (3): Sequential(
                  (0): BatchNorm2d(96, eps=1e-05, momentum=0.1, affine=True, track_running_stats=True)
                  (1): ReLU(inplace=True)
                )
              )
            )
            (4): FactorisedConv(
              (block): Sequential(
                (0): Conv2d(96, 96, kernel_size=(1, 3), stride=(1, 1), padding=(0, 1), bias=False)
                (1): Sequential(
                  (0): BatchNorm2d(96, eps=1e-05, momentum=0.1, affine=True, track_running_stats=True)
                  (1): ReLU(inplace=True)
                )
                (2): Conv2d(96, 96, kernel_size=(3, 1), stride=(1, 1), padding=(1, 0), bias=False)
                (3): Sequential(
                  (0): BatchNorm2d(96, eps=1e-05, momentum=0.1, affine=True, track_running_stats=True)
                  (1): ReLU(inplace=True)
                )
              )
            )
          )
          (b3): Sequential(
            (0): MaxPool2d(kernel_size=3, stride=1, padding=1, dilation=1, ceil_mode=False)
            (1): Conv2d(64, 32, kernel_size=(1, 1), stride=(1, 1), bias=False)
            (2): BatchNorm2d(32, eps=1e-05, momentum=0.1, affine=True, track_running_stats=True)
            (3): ReLU(inplace=True)
          )
          (se): SE(
            (avg): AdaptiveAvgPool2d(output_size=1)
            (fc): Sequential(
              (0): Linear(in_features=256, out_features=16, bias=False)
              (1): ReLU(inplace=True)
              (2): Linear(in_features=16, out_features=256, bias=False)
              (3): Sigmoid()
            )
          )
          (dropout): Identity()
        )
        (1): MaxPool2d(kernel_size=3, stride=2, padding=1, dilation=1, ceil_mode=False)
      )
    )
    (1): InceptionStage(
      (stage): Sequential(
        (0): InceptionBlock(
          (b0): Sequential(
            (0): Conv2d(256, 128, kernel_size=(1, 1), stride=(1, 1), bias=False)
            (1): BatchNorm2d(128, eps=1e-05, momentum=0.1, affine=True, track_running_stats=True)
            (2): ReLU(inplace=True)
          )
          (b1): Sequential(
            (0): Conv2d(256, 96, kernel_size=(1, 1), stride=(1, 1), bias=False)
            (1): BatchNorm2d(96, eps=1e-05, momentum=0.1, affine=True, track_running_stats=True)
            (2): ReLU(inplace=True)
            (3): FactorisedConv(
              (block): Sequential(
                (0): Conv2d(96, 128, kernel_size=(1, 3), stride=(1, 1), padding=(0, 1), bias=False)
                (1): Sequential(
                  (0): BatchNorm2d(128, eps=1e-05, momentum=0.1, affine=True, track_running_stats=True)
                  (1): ReLU(inplace=True)
                )
                (2): Conv2d(128, 128, kernel_size=(3, 1), stride=(1, 1), padding=(1, 0), bias=False)
                (3): Sequential(
                  (0): BatchNorm2d(128, eps=1e-05, momentum=0.1, affine=True, track_running_stats=True)
                  (1): ReLU(inplace=True)
                )
              )
            )
          )
          (b2): Sequential(
            (0): Conv2d(256, 96, kernel_size=(1, 1), stride=(1, 1), bias=False)
            (1): BatchNorm2d(96, eps=1e-05, momentum=0.1, affine=True, track_running_stats=True)
            (2): ReLU(inplace=True)
            (3): FactorisedConv(
              (block): Sequential(
                (0): Conv2d(96, 128, kernel_size=(1, 3), stride=(1, 1), padding=(0, 1), bias=False)
                (1): Sequential(
                  (0): BatchNorm2d(128, eps=1e-05, momentum=0.1, affine=True, track_running_stats=True)
                  (1): ReLU(inplace=True)
                )
                (2): Conv2d(128, 128, kernel_size=(3, 1), stride=(1, 1), padding=(1, 0), bias=False)
                (3): Sequential(
                  (0): BatchNorm2d(128, eps=1e-05, momentum=0.1, affine=True, track_running_stats=True)
                  (1): ReLU(inplace=True)
                )
              )
            )
            (4): FactorisedConv(
              (block): Sequential(
                (0): Conv2d(128, 128, kernel_size=(1, 3), stride=(1, 1), padding=(0, 1), bias=False)
                (1): Sequential(
                  (0): BatchNorm2d(128, eps=1e-05, momentum=0.1, affine=True, track_running_stats=True)
                  (1): ReLU(inplace=True)
                )
                (2): Conv2d(128, 128, kernel_size=(3, 1), stride=(1, 1), padding=(1, 0), bias=False)
                (3): Sequential(
                  (0): BatchNorm2d(128, eps=1e-05, momentum=0.1, affine=True, track_running_stats=True)
                  (1): ReLU(inplace=True)
                )
              )
            )
          )
          (b3): Sequential(
            (0): MaxPool2d(kernel_size=3, stride=1, padding=1, dilation=1, ceil_mode=False)
            (1): Conv2d(256, 64, kernel_size=(1, 1), stride=(1, 1), bias=False)
            (2): BatchNorm2d(64, eps=1e-05, momentum=0.1, affine=True, track_running_stats=True)
            (3): ReLU(inplace=True)
          )
          (se): SE(
            (avg): AdaptiveAvgPool2d(output_size=1)
            (fc): Sequential(
              (0): Linear(in_features=448, out_features=28, bias=False)
              (1): ReLU(inplace=True)
              (2): Linear(in_features=28, out_features=448, bias=False)
              (3): Sigmoid()
            )
          )
          (dropout): Identity()
        )
        (1): InceptionBlock(
          (b0): Sequential(
            (0): Conv2d(448, 128, kernel_size=(1, 1), stride=(1, 1), bias=False)
            (1): BatchNorm2d(128, eps=1e-05, momentum=0.1, affine=True, track_running_stats=True)
            (2): ReLU(inplace=True)
          )
          (b1): Sequential(
            (0): Conv2d(448, 96, kernel_size=(1, 1), stride=(1, 1), bias=False)
            (1): BatchNorm2d(96, eps=1e-05, momentum=0.1, affine=True, track_running_stats=True)
            (2): ReLU(inplace=True)
            (3): FactorisedConv(
              (block): Sequential(
                (0): Conv2d(96, 128, kernel_size=(1, 3), stride=(1, 1), padding=(0, 1), bias=False)
                (1): Sequential(
                  (0): BatchNorm2d(128, eps=1e-05, momentum=0.1, affine=True, track_running_stats=True)
                  (1): ReLU(inplace=True)
                )
                (2): Conv2d(128, 128, kernel_size=(3, 1), stride=(1, 1), padding=(1, 0), bias=False)
                (3): Sequential(
                  (0): BatchNorm2d(128, eps=1e-05, momentum=0.1, affine=True, track_running_stats=True)
                  (1): ReLU(inplace=True)
                )
              )
            )
          )
          (b2): Sequential(
            (0): Conv2d(448, 96, kernel_size=(1, 1), stride=(1, 1), bias=False)
            (1): BatchNorm2d(96, eps=1e-05, momentum=0.1, affine=True, track_running_stats=True)
            (2): ReLU(inplace=True)
            (3): FactorisedConv(
              (block): Sequential(
                (0): Conv2d(96, 128, kernel_size=(1, 3), stride=(1, 1), padding=(0, 1), bias=False)
                (1): Sequential(
                  (0): BatchNorm2d(128, eps=1e-05, momentum=0.1, affine=True, track_running_stats=True)
                  (1): ReLU(inplace=True)
                )
                (2): Conv2d(128, 128, kernel_size=(3, 1), stride=(1, 1), padding=(1, 0), bias=False)
                (3): Sequential(
                  (0): BatchNorm2d(128, eps=1e-05, momentum=0.1, affine=True, track_running_stats=True)
                  (1): ReLU(inplace=True)
                )
              )
            )
            (4): FactorisedConv(
              (block): Sequential(
                (0): Conv2d(128, 128, kernel_size=(1, 3), stride=(1, 1), padding=(0, 1), bias=False)
                (1): Sequential(
                  (0): BatchNorm2d(128, eps=1e-05, momentum=0.1, affine=True, track_running_stats=True)
                  (1): ReLU(inplace=True)
                )
                (2): Conv2d(128, 128, kernel_size=(3, 1), stride=(1, 1), padding=(1, 0), bias=False)
                (3): Sequential(
                  (0): BatchNorm2d(128, eps=1e-05, momentum=0.1, affine=True, track_running_stats=True)
                  (1): ReLU(inplace=True)
                )
              )
            )
          )
          (b3): Sequential(
            (0): MaxPool2d(kernel_size=3, stride=1, padding=1, dilation=1, ceil_mode=False)
            (1): Conv2d(448, 64, kernel_size=(1, 1), stride=(1, 1), bias=False)
            (2): BatchNorm2d(64, eps=1e-05, momentum=0.1, affine=True, track_running_stats=True)
            (3): ReLU(inplace=True)
          )
          (se): SE(
            (avg): AdaptiveAvgPool2d(output_size=1)
            (fc): Sequential(
              (0): Linear(in_features=448, out_features=28, bias=False)
              (1): ReLU(inplace=True)
              (2): Linear(in_features=28, out_features=448, bias=False)
              (3): Sigmoid()
            )
          )
          (dropout): Identity()
        )
        (2): MaxPool2d(kernel_size=3, stride=2, padding=1, dilation=1, ceil_mode=False)
      )
    )
    (2): InceptionStage(
      (stage): Sequential(
        (0): InceptionBlock(
          (b0): Sequential(
            (0): Conv2d(448, 192, kernel_size=(1, 1), stride=(1, 1), bias=False)
            (1): BatchNorm2d(192, eps=1e-05, momentum=0.1, affine=True, track_running_stats=True)
            (2): ReLU(inplace=True)
          )
          (b1): Sequential(
            (0): Conv2d(448, 96, kernel_size=(1, 1), stride=(1, 1), bias=False)
            (1): BatchNorm2d(96, eps=1e-05, momentum=0.1, affine=True, track_running_stats=True)
            (2): ReLU(inplace=True)
            (3): FactorisedConv(
              (block): Sequential(
                (0): Conv2d(96, 160, kernel_size=(1, 3), stride=(1, 1), padding=(0, 1), bias=False)
                (1): Sequential(
                  (0): BatchNorm2d(160, eps=1e-05, momentum=0.1, affine=True, track_running_stats=True)
                  (1): ReLU(inplace=True)
                )
                (2): Conv2d(160, 160, kernel_size=(3, 1), stride=(1, 1), padding=(1, 0), bias=False)
                (3): Sequential(
                  (0): BatchNorm2d(160, eps=1e-05, momentum=0.1, affine=True, track_running_stats=True)
                  (1): ReLU(inplace=True)
                )
              )
            )
          )
          (b2): Sequential(
            (0): Conv2d(448, 128, kernel_size=(1, 1), stride=(1, 1), bias=False)
            (1): BatchNorm2d(128, eps=1e-05, momentum=0.1, affine=True, track_running_stats=True)
            (2): ReLU(inplace=True)
            (3): FactorisedConv(
              (block): Sequential(
                (0): Conv2d(128, 192, kernel_size=(1, 3), stride=(1, 1), padding=(0, 1), bias=False)
                (1): Sequential(
                  (0): BatchNorm2d(192, eps=1e-05, momentum=0.1, affine=True, track_running_stats=True)
                  (1): ReLU(inplace=True)
                )
                (2): Conv2d(192, 192, kernel_size=(3, 1), stride=(1, 1), padding=(1, 0), bias=False)
                (3): Sequential(
                  (0): BatchNorm2d(192, eps=1e-05, momentum=0.1, affine=True, track_running_stats=True)
                  (1): ReLU(inplace=True)
                )
              )
            )
            (4): FactorisedConv(
              (block): Sequential(
                (0): Conv2d(192, 192, kernel_size=(1, 3), stride=(1, 1), padding=(0, 1), bias=False)
                (1): Sequential(
                  (0): BatchNorm2d(192, eps=1e-05, momentum=0.1, affine=True, track_running_stats=True)
                  (1): ReLU(inplace=True)
                )
                (2): Conv2d(192, 192, kernel_size=(3, 1), stride=(1, 1), padding=(1, 0), bias=False)
                (3): Sequential(
                  (0): BatchNorm2d(192, eps=1e-05, momentum=0.1, affine=True, track_running_stats=True)
                  (1): ReLU(inplace=True)
                )
              )
            )
          )
          (b3): Sequential(
            (0): MaxPool2d(kernel_size=3, stride=1, padding=1, dilation=1, ceil_mode=False)
            (1): Conv2d(448, 96, kernel_size=(1, 1), stride=(1, 1), bias=False)
            (2): BatchNorm2d(96, eps=1e-05, momentum=0.1, affine=True, track_running_stats=True)
            (3): ReLU(inplace=True)
          )
          (se): SE(
            (avg): AdaptiveAvgPool2d(output_size=1)
            (fc): Sequential(
              (0): Linear(in_features=640, out_features=40, bias=False)
              (1): ReLU(inplace=True)
              (2): Linear(in_features=40, out_features=640, bias=False)
              (3): Sigmoid()
            )
          )
          (dropout): Identity()
        )
        (1): InceptionBlock(
          (b0): Sequential(
            (0): Conv2d(640, 192, kernel_size=(1, 1), stride=(1, 1), bias=False)
            (1): BatchNorm2d(192, eps=1e-05, momentum=0.1, affine=True, track_running_stats=True)
            (2): ReLU(inplace=True)
          )
          (b1): Sequential(
            (0): Conv2d(640, 96, kernel_size=(1, 1), stride=(1, 1), bias=False)
            (1): BatchNorm2d(96, eps=1e-05, momentum=0.1, affine=True, track_running_stats=True)
            (2): ReLU(inplace=True)
            (3): FactorisedConv(
              (block): Sequential(
                (0): Conv2d(96, 160, kernel_size=(1, 3), stride=(1, 1), padding=(0, 1), bias=False)
                (1): Sequential(
                  (0): BatchNorm2d(160, eps=1e-05, momentum=0.1, affine=True, track_running_stats=True)
                  (1): ReLU(inplace=True)
                )
                (2): Conv2d(160, 160, kernel_size=(3, 1), stride=(1, 1), padding=(1, 0), bias=False)
                (3): Sequential(
                  (0): BatchNorm2d(160, eps=1e-05, momentum=0.1, affine=True, track_running_stats=True)
                  (1): ReLU(inplace=True)
                )
              )
            )
          )
          (b2): Sequential(
            (0): Conv2d(640, 128, kernel_size=(1, 1), stride=(1, 1), bias=False)
            (1): BatchNorm2d(128, eps=1e-05, momentum=0.1, affine=True, track_running_stats=True)
            (2): ReLU(inplace=True)
            (3): FactorisedConv(
              (block): Sequential(
                (0): Conv2d(128, 192, kernel_size=(1, 3), stride=(1, 1), padding=(0, 1), bias=False)
                (1): Sequential(
                  (0): BatchNorm2d(192, eps=1e-05, momentum=0.1, affine=True, track_running_stats=True)
                  (1): ReLU(inplace=True)
                )
                (2): Conv2d(192, 192, kernel_size=(3, 1), stride=(1, 1), padding=(1, 0), bias=False)
                (3): Sequential(
                  (0): BatchNorm2d(192, eps=1e-05, momentum=0.1, affine=True, track_running_stats=True)
                  (1): ReLU(inplace=True)
                )
              )
            )
            (4): FactorisedConv(
              (block): Sequential(
                (0): Conv2d(192, 192, kernel_size=(1, 3), stride=(1, 1), padding=(0, 1), bias=False)
                (1): Sequential(
                  (0): BatchNorm2d(192, eps=1e-05, momentum=0.1, affine=True, track_running_stats=True)
                  (1): ReLU(inplace=True)
                )
                (2): Conv2d(192, 192, kernel_size=(3, 1), stride=(1, 1), padding=(1, 0), bias=False)
                (3): Sequential(
                  (0): BatchNorm2d(192, eps=1e-05, momentum=0.1, affine=True, track_running_stats=True)
                  (1): ReLU(inplace=True)
                )
              )
            )
          )
          (b3): Sequential(
            (0): MaxPool2d(kernel_size=3, stride=1, padding=1, dilation=1, ceil_mode=False)
            (1): Conv2d(640, 96, kernel_size=(1, 1), stride=(1, 1), bias=False)
            (2): BatchNorm2d(96, eps=1e-05, momentum=0.1, affine=True, track_running_stats=True)
            (3): ReLU(inplace=True)
          )
          (se): SE(
            (avg): AdaptiveAvgPool2d(output_size=1)
            (fc): Sequential(
              (0): Linear(in_features=640, out_features=40, bias=False)
              (1): ReLU(inplace=True)
              (2): Linear(in_features=40, out_features=640, bias=False)
              (3): Sigmoid()
            )
          )
          (dropout): Identity()
        )
      )
    )
  )
  (pool): AdaptiveAvgPool2d(output_size=1)
  (classifier): Classifier(
    (net): Sequential(
      (0): Linear(in_features=640, out_features=2048, bias=True)
      (1): ReLU(inplace=True)
      (2): Dropout(p=0.6, inplace=False)
      (3): Linear(in_features=2048, out_features=1024, bias=True)
      (4): ReLU(inplace=True)
      (5): Dropout(p=0.6, inplace=False)
      (6): Linear(in_features=1024, out_features=29, bias=True)
    )
  )
)
Overwriting model state from search_InceptionNet_mame.pth
Epoch 001/300: train_loss=2.6159 acc=0.198 | val_loss=2.2271 acc=0.304
Epoch 002/300: train_loss=2.0340 acc=0.362 | val_loss=1.9187 acc=0.410
Epoch 003/300: train_loss=1.8093 acc=0.429 | val_loss=1.6895 acc=0.468
Epoch 004/300: train_loss=1.6510 acc=0.476 | val_loss=1.4974 acc=0.517
Epoch 005/300: train_loss=1.5313 acc=0.510 | val_loss=1.4591 acc=0.529
…
