Model: InceptionNetV3(
  (stem): Stem(
    (seq): Sequential(
      (0): Conv2d(3, 64, kernel_size=(7, 7), stride=(2, 2), padding=(3, 3), bias=False)
      (1): BatchNorm2d(64, eps=1e-05, momentum=0.1, affine=True, track_running_stats=True)
      (2): ReLU(inplace=True)
      (3): MaxPool2d(kernel_size=3, stride=2, padding=1, dilation=1, ceil_mode=False)
    )
  )
  (stages): Sequential(
    (0): InceptionStage(
      (stage): Sequential(
        (0): InceptionBlock(
          (b0): Sequential(
            (0): Conv2d(64, 64, kernel_size=(1, 1), stride=(1, 1), bias=False)
            (1): BatchNorm2d(64, eps=1e-05, momentum=0.1, affine=True, track_running_stats=True)
            (2): ReLU(inplace=True)
          )
          (b1): Sequential(
            (0): Conv2d(64, 48, kernel_size=(1, 1), stride=(1, 1), bias=False)
            (1): BatchNorm2d(48, eps=1e-05, momentum=0.1, affine=True, track_running_stats=True)
            (2): ReLU(inplace=True)
            (3): FactorisedConv(
              (block): Sequential(
                (0): Conv2d(48, 64, kernel_size=(1, 3), stride=(1, 1), padding=(0, 1), bias=False)
                (1): Sequential(
                  (0): BatchNorm2d(64, eps=1e-05, momentum=0.1, affine=True, track_running_stats=True)
                  (1): ReLU(inplace=True)
                )
                (2): Conv2d(64, 64, kernel_size=(3, 1), stride=(1, 1), padding=(1, 0), bias=False)
                (3): Sequential(
                  (0): BatchNorm2d(64, eps=1e-05, momentum=0.1, affine=True, track_running_stats=True)
                  (1): ReLU(inplace=True)
                )
              )
            )
          )
          (b2): Sequential(
            (0): Conv2d(64, 64, kernel_size=(1, 1), stride=(1, 1), bias=False)
            (1): BatchNorm2d(64, eps=1e-05, momentum=0.1, affine=True, track_running_stats=True)
            (2): ReLU(inplace=True)
            (3): FactorisedConv(
              (block): Sequential(
                (0): Conv2d(64, 96, kernel_size=(1, 3), stride=(1, 1), padding=(0, 1), bias=False)
                (1): Sequential(
                  (0): BatchNorm2d(96, eps=1e-05, momentum=0.1, affine=True, track_running_stats=True)
                  (1): ReLU(inplace=True)
                )
                (2): Conv2d(96, 96, kernel_size=(3, 1), stride=(1, 1), padding=(1, 0), bias=False)
                (3): Sequential(
                  (0): BatchNorm2d(96, eps=1e-05, momentum=0.1, affine=True, track_running_stats=True)
                  (1): ReLU(inplace=True)
                )
              )
            )
            (4): FactorisedConv(
              (block): Sequential(
                (0): Conv2d(96, 96, kernel_size=(1, 3), stride=(1, 1), padding=(0, 1), bias=False)
                (1): Sequential(
                  (0): BatchNorm2d(96, eps=1e-05, momentum=0.1, affine=True, track_running_stats=True)
                  (1): ReLU(inplace=True)
                )
                (2): Conv2d(96, 96, kernel_size=(3, 1), stride=(1, 1), padding=(1, 0), bias=False)
                (3): Sequential(
                  (0): BatchNorm2d(96, eps=1e-05, momentum=0.1, affine=True, track_running_stats=True)
                  (1): ReLU(inplace=True)
                )
              )
            )
          )
          (b3): Sequential(
            (0): MaxPool2d(kernel_size=3, stride=1, padding=1, dilation=1, ceil_mode=False)
            (1): Conv2d(64, 32, kernel_size=(1, 1), stride=(1, 1), bias=False)
            (2): BatchNorm2d(32, eps=1e-05, momentum=0.1, affine=True, track_running_stats=True)
            (3): ReLU(inplace=True)
          )
          (se): SE(
            (avg): AdaptiveAvgPool2d(output_size=1)
            (fc): Sequential(
              (0): Linear(in_features=256, out_features=16, bias=False)
              (1): ReLU(inplace=True)
              (2): Linear(in_features=16, out_features=256, bias=False)
              (3): Sigmoid()
            )
          )
          (dropout): Dropout2d(p=0.1, inplace=False)
        )
        (1): InceptionBlock(
          (b0): Sequential(
            (0): Conv2d(256, 64, kernel_size=(1, 1), stride=(1, 1), bias=False)
            (1): BatchNorm2d(64, eps=1e-05, momentum=0.1, affine=True, track_running_stats=True)
            (2): ReLU(inplace=True)
          )
          (b1): Sequential(
            (0): Conv2d(256, 48, kernel_size=(1, 1), stride=(1, 1), bias=False)
            (1): BatchNorm2d(48, eps=1e-05, momentum=0.1, affine=True, track_running_stats=True)
            (2): ReLU(inplace=True)
            (3): FactorisedConv(
              (block): Sequential(
                (0): Conv2d(48, 64, kernel_size=(1, 3), stride=(1, 1), padding=(0, 1), bias=False)
                (1): Sequential(
                  (0): BatchNorm2d(64, eps=1e-05, momentum=0.1, affine=True, track_running_stats=True)
                  (1): ReLU(inplace=True)
                )
                (2): Conv2d(64, 64, kernel_size=(3, 1), stride=(1, 1), padding=(1, 0), bias=False)
                (3): Sequential(
                  (0): BatchNorm2d(64, eps=1e-05, momentum=0.1, affine=True, track_running_stats=True)
                  (1): ReLU(inplace=True)
                )
              )
            )
          )
          (b2): Sequential(
            (0): Conv2d(256, 64, kernel_size=(1, 1), stride=(1, 1), bias=False)
            (1): BatchNorm2d(64, eps=1e-05, momentum=0.1, affine=True, track_running_stats=True)
            (2): ReLU(inplace=True)
            (3): FactorisedConv(
              (block): Sequential(
                (0): Conv2d(64, 96, kernel_size=(1, 3), stride=(1, 1), padding=(0, 1), bias=False)
                (1): Sequential(
                  (0): BatchNorm2d(96, eps=1e-05, momentum=0.1, affine=True, track_running_stats=True)
                  (1): ReLU(inplace=True)
                )
                (2): Conv2d(96, 96, kernel_size=(3, 1), stride=(1, 1), padding=(1, 0), bias=False)
                (3): Sequential(
                  (0): BatchNorm2d(96, eps=1e-05, momentum=0.1, affine=True, track_running_stats=True)
                  (1): ReLU(inplace=True)
                )
              )
            )
            (4): FactorisedConv(
              (block): Sequential(
                (0): Conv2d(96, 96, kernel_size=(1, 3), stride=(1, 1), padding=(0, 1), bias=False)
                (1): Sequential(
                  (0): BatchNorm2d(96, eps=1e-05, momentum=0.1, affine=True, track_running_stats=True)
                  (1): ReLU(inplace=True)
                )
                (2): Conv2d(96, 96, kernel_size=(3, 1), stride=(1, 1), padding=(1, 0), bias=False)
                (3): Sequential(
                  (0): BatchNorm2d(96, eps=1e-05, momentum=0.1, affine=True, track_running_stats=True)
                  (1): ReLU(inplace=True)
                )
              )
            )
          )
          (b3): Sequential(
            (0): MaxPool2d(kernel_size=3, stride=1, padding=1, dilation=1, ceil_mode=False)
            (1): Conv2d(256, 32, kernel_size=(1, 1), stride=(1, 1), bias=False)
            (2): BatchNorm2d(32, eps=1e-05, momentum=0.1, affine=True, track_running_stats=True)
            (3): ReLU(inplace=True)
          )
          (se): SE(
            (avg): AdaptiveAvgPool2d(output_size=1)
            (fc): Sequential(
              (0): Linear(in_features=256, out_features=16, bias=False)
              (1): ReLU(inplace=True)
              (2): Linear(in_features=16, out_features=256, bias=False)
              (3): Sigmoid()
            )
          )
          (dropout): Dropout2d(p=0.2, inplace=False)
        )
        (2): MaxPool2d(kernel_size=3, stride=2, padding=1, dilation=1, ceil_mode=False)
      )
    )
    (1): InceptionStage(
      (stage): Sequential(
        (0): InceptionBlock(
          (b0): Sequential(
            (0): Conv2d(256, 128, kernel_size=(1, 1), stride=(1, 1), bias=False)
            (1): BatchNorm2d(128, eps=1e-05, momentum=0.1, affine=True, track_running_stats=True)
            (2): ReLU(inplace=True)
          )
          (b1): Sequential(
            (0): Conv2d(256, 96, kernel_size=(1, 1), stride=(1, 1), bias=False)
            (1): BatchNorm2d(96, eps=1e-05, momentum=0.1, affine=True, track_running_stats=True)
            (2): ReLU(inplace=True)
            (3): FactorisedConv(
              (block): Sequential(
                (0): Conv2d(96, 128, kernel_size=(1, 3), stride=(1, 1), padding=(0, 1), bias=False)
                (1): Sequential(
                  (0): BatchNorm2d(128, eps=1e-05, momentum=0.1, affine=True, track_running_stats=True)
                  (1): ReLU(inplace=True)
                )
                (2): Conv2d(128, 128, kernel_size=(3, 1), stride=(1, 1), padding=(1, 0), bias=False)
                (3): Sequential(
                  (0): BatchNorm2d(128, eps=1e-05, momentum=0.1, affine=True, track_running_stats=True)
                  (1): ReLU(inplace=True)
                )
              )
            )
          )
          (b2): Sequential(
            (0): Conv2d(256, 96, kernel_size=(1, 1), stride=(1, 1), bias=False)
            (1): BatchNorm2d(96, eps=1e-05, momentum=0.1, affine=True, track_running_stats=True)
            (2): ReLU(inplace=True)
            (3): FactorisedConv(
              (block): Sequential(
                (0): Conv2d(96, 128, kernel_size=(1, 3), stride=(1, 1), padding=(0, 1), bias=False)
                (1): Sequential(
                  (0): BatchNorm2d(128, eps=1e-05, momentum=0.1, affine=True, track_running_stats=True)
                  (1): ReLU(inplace=True)
                )
                (2): Conv2d(128, 128, kernel_size=(3, 1), stride=(1, 1), padding=(1, 0), bias=False)
                (3): Sequential(
                  (0): BatchNorm2d(128, eps=1e-05, momentum=0.1, affine=True, track_running_stats=True)
                  (1): ReLU(inplace=True)
                )
              )
            )
            (4): FactorisedConv(
              (block): Sequential(
                (0): Conv2d(128, 128, kernel_size=(1, 3), stride=(1, 1), padding=(0, 1), bias=False)
                (1): Sequential(
                  (0): BatchNorm2d(128, eps=1e-05, momentum=0.1, affine=True, track_running_stats=True)
                  (1): ReLU(inplace=True)
                )
                (2): Conv2d(128, 128, kernel_size=(3, 1), stride=(1, 1), padding=(1, 0), bias=False)
                (3): Sequential(
                  (0): BatchNorm2d(128, eps=1e-05, momentum=0.1, affine=True, track_running_stats=True)
                  (1): ReLU(inplace=True)
                )
              )
            )
          )
          (b3): Sequential(
            (0): MaxPool2d(kernel_size=3, stride=1, padding=1, dilation=1, ceil_mode=False)
            (1): Conv2d(256, 64, kernel_size=(1, 1), stride=(1, 1), bias=False)
            (2): BatchNorm2d(64, eps=1e-05, momentum=0.1, affine=True, track_running_stats=True)
            (3): ReLU(inplace=True)
          )
          (se): SE(
            (avg): AdaptiveAvgPool2d(output_size=1)
            (fc): Sequential(
              (0): Linear(in_features=448, out_features=28, bias=False)
              (1): ReLU(inplace=True)
              (2): Linear(in_features=28, out_features=448, bias=False)
              (3): Sigmoid()
            )
          )
          (dropout): Dropout2d(p=0.25, inplace=False)
        )
        (1): MaxPool2d(kernel_size=3, stride=2, padding=1, dilation=1, ceil_mode=False)
      )
    )
  )
  (pool): AdaptiveAvgPool2d(output_size=1)
  (classifier): Classifier(
    (net): Sequential(
      (0): Linear(in_features=448, out_features=2048, bias=True)
      (1): ReLU(inplace=True)
      (2): Dropout(p=0.5, inplace=False)
      (3): Linear(in_features=2048, out_features=1024, bias=True)
      (4): ReLU(inplace=True)
      (5): Dropout(p=0.5, inplace=False)
      (6): Linear(in_features=1024, out_features=29, bias=True)
    )
  )
)
Overwriting model state from train_InceptionNetV3_mame.pth
Patience for early stopping: 30 epochs
Training for 300 epochs
Epoch 001/300: train_loss=2.5898 acc=0.189 | val_loss=2.1971 acc=0.319
Epoch 002/300: train_loss=2.0257 acc=0.362 | val_loss=1.8888 acc=0.421
Epoch 003/300: train_loss=1.7833 acc=0.436 | val_loss=1.5769 acc=0.491
Epoch 004/300: train_loss=1.6231 acc=0.488 | val_loss=1.4407 acc=0.546
…
