Model: InceptionNet(
  (stem): Stem(
    (stem): Sequential(
      (0): Conv2d(3, 64, kernel_size=(3, 3), stride=(2, 2), padding=(1, 1), bias=False)
      (1): Identity()
      (2): ReLU(inplace=True)
      (3): MaxPool2d(kernel_size=2, stride=2, padding=1, dilation=1, ceil_mode=False)
    )
  )
  (stages): Sequential(
    (0): InceptionStage(
      (stage): Sequential(
        (0): InceptionBlock(
          (b0): Sequential(
            (0): Conv2d(64, 2048, kernel_size=(1, 1), stride=(1, 1), bias=False)
            (1): Identity()
            (2): ReLU(inplace=True)
          )
          (b1): Sequential(
            (0): Conv2d(64, 256, kernel_size=(1, 1), stride=(1, 1), bias=False)
            (1): Identity()
            (2): ReLU(inplace=True)
            (3): FactorisedConv(
              (block): Sequential(
                (0): Conv2d(256, 1024, kernel_size=(1, 3), stride=(1, 1), padding=(0, 1), bias=False)
                (1): ReLU(inplace=True)
                (2): Conv2d(1024, 1024, kernel_size=(3, 1), stride=(1, 1), padding=(1, 0), bias=False)
                (3): ReLU(inplace=True)
              )
            )
          )
          (b2): Sequential(
            (0): Conv2d(64, 256, kernel_size=(1, 1), stride=(1, 1), bias=False)
            (1): Identity()
            (2): ReLU(inplace=True)
            (3): FactorisedConv(
              (block): Sequential(
                (0): Conv2d(256, 1024, kernel_size=(1, 3), stride=(1, 1), padding=(0, 1), bias=False)
                (1): ReLU(inplace=True)
                (2): Conv2d(1024, 1024, kernel_size=(3, 1), stride=(1, 1), padding=(1, 0), bias=False)
                (3): ReLU(inplace=True)
              )
            )
            (4): FactorisedConv(
              (block): Sequential(
                (0): Conv2d(1024, 1024, kernel_size=(1, 3), stride=(1, 1), padding=(0, 1), bias=False)
                (1): ReLU(inplace=True)
                (2): Conv2d(1024, 1024, kernel_size=(3, 1), stride=(1, 1), padding=(1, 0), bias=False)
                (3): ReLU(inplace=True)
              )
            )
          )
          (b3): Sequential(
            (0): MaxPool2d(kernel_size=3, stride=1, padding=1, dilation=1, ceil_mode=False)
            (1): Conv2d(64, 1024, kernel_size=(1, 1), stride=(1, 1), bias=False)
            (2): Identity()
            (3): ReLU(inplace=True)
          )
          (dropout): Identity()
        )
        (1): MaxPool2d(kernel_size=3, stride=2, padding=1, dilation=1, ceil_mode=False)
      )
    )
    (1): InceptionStage(
      (stage): Sequential(
        (0): InceptionBlock(
          (b0): Sequential(
            (0): Conv2d(5120, 8192, kernel_size=(1, 1), stride=(1, 1), bias=False)
            (1): Identity()
            (2): ReLU(inplace=True)
          )
          (b1): Sequential(
            (0): Conv2d(5120, 256, kernel_size=(1, 1), stride=(1, 1), bias=False)
            (1): Identity()
            (2): ReLU(inplace=True)
            (3): FactorisedConv(
              (block): Sequential(
                (0): Conv2d(256, 2048, kernel_size=(1, 3), stride=(1, 1), padding=(0, 1), bias=False)
                (1): ReLU(inplace=True)
                (2): Conv2d(2048, 2048, kernel_size=(3, 1), stride=(1, 1), padding=(1, 0), bias=False)
                (3): ReLU(inplace=True)
              )
            )
          )
          (b2): Sequential(
            (0): Conv2d(5120, 256, kernel_size=(1, 1), stride=(1, 1), bias=False)
            (1): Identity()
            (2): ReLU(inplace=True)
            (3): FactorisedConv(
              (block): Sequential(
                (0): Conv2d(256, 2048, kernel_size=(1, 3), stride=(1, 1), padding=(0, 1), bias=False)
                (1): ReLU(inplace=True)
                (2): Conv2d(2048, 2048, kernel_size=(3, 1), stride=(1, 1), padding=(1, 0), bias=False)
                (3): ReLU(inplace=True)
              )
            )
            (4): FactorisedConv(
              (block): Sequential(
                (0): Conv2d(2048, 2048, kernel_size=(1, 3), stride=(1, 1), padding=(0, 1), bias=False)
                (1): ReLU(inplace=True)
                (2): Conv2d(2048, 2048, kernel_size=(3, 1), stride=(1, 1), padding=(1, 0), bias=False)
                (3): ReLU(inplace=True)
              )
            )
          )
          (b3): Sequential(
            (0): MaxPool2d(kernel_size=3, stride=1, padding=1, dilation=1, ceil_mode=False)
            (1): Conv2d(5120, 2048, kernel_size=(1, 1), stride=(1, 1), bias=False)
            (2): Identity()
            (3): ReLU(inplace=True)
          )
          (dropout): Identity()
        )
      )
    )
  )
  (pool): AdaptiveAvgPool2d(output_size=1)
  (classifier): Classifier(
    (net): Sequential(
      (0): Linear(in_features=14336, out_features=32768, bias=True)
      (1): ReLU(inplace=True)
      (2): Dropout(p=0.05, inplace=False)
      (3): Linear(in_features=32768, out_features=4096, bias=True)
      (4): ReLU(inplace=True)
      (5): Dropout(p=0.05, inplace=False)
      (6): Linear(in_features=4096, out_features=29, bias=True)
    )
  )
)
Overwriting model state from overfit_InceptionNet_mame.pth
Patience for early stopping: 20 epochs
Training for 300 epochs
Epoch 001/300: train_loss=4.6374 acc=0.221 | val_loss=2.1381 acc=0.327
Epoch 002/300: train_loss=1.9188 acc=0.399 | val_loss=1.8094 acc=0.432
Epoch 003/300: train_loss=1.6218 acc=0.493 | val_loss=1.5737 acc=0.495
Epoch 004/300: train_loss=1.4396 acc=0.542 | val_loss=1.3936 acc=0.562
…
